example_model.pth (torch, 864523 bytes, 16 tensors)

layers.0.weight f4 [204, 102]
-0.21018977 0.11634662 -0.10113129 0.13746227 -0.022011857 -0.13397077 0.060361832 0.040277664
0.06595334 -0.09292191 0.007594987 0.014122834 -0.0025959024 -0.018334312 0.050376456 0.07617422
0.05696731 0.009367779 -0.12858458 -0.08022806 -0.013218302 0.02671412 0.015420259 0.1155699
0.00575778 -0.1415064 0.13432287 -0.009134508 -0.019989915 0.121476054 -0.07951855 0.0624998
-0.14498882 0.0065303748 -0.06759463 0.06330969 -0.023392774 0.036349297 0.06891336 -0.102588184
-0.0895581 0.05752309 -0.08101616 0.09089992 -0.03469831 -0.079392545 -0.052805237 0.008519145
-0.12756352 0.12754837 0.028047256 -0.051209852 -0.049462575 0.06976086 0.023740238 0.14677306
0.055199973 -0.049210094 0.024361895 0.060363322 0.16020538 0.0031311687 -0.11071273 -0.05920884
-0.11624365 0.046301413 -0.18356152 -0.038716167 -0.10179073 -0.05669727 -0.11651442 0.005840576
-0.048338916 0.03196017 -0.058338705 0.17569791 -0.052485436 -0.019841058 -0.13806398 0.13725524
-0.17941111 -0.057680987 -0.0013712207 -0.037385218 0.07824043 0.054773133 -0.10463489 0.061858848
-0.013786483 0.045615956 -0.037784174 -0.122538395 0.108060524 -0.007897065 -0.0007422425 0.04797527
0.11763288 0.13444151 -0.0030612482 0.03057157 -0.06096395 -0.06837715 -0.04439455 -0.27246314
0.04944527 0.048182625 0.06063511 0.004054059 -0.117226675 -0.07773958 -0.13120812 0.101635925
-0.056017283 -0.05720769 0.10524939 -0.029923715 -0.029324098 0.07913622 0.062674604 -0.10645768
-0.0007147008 -0.038776565 -0.06317404 -0.024149908 -0.018971892 -0.070558995 0.07040656 0.049900424
0.011267072 -0.11746159 0.12744217 -0.15435125 0.020789007 -0.1389519 0.0042447513 -0.0486657
0.057245992 0.016769238 0.22181486 -0.23716967 -0.03337851 -0.0812408 0.042719144 0.081706345
-0.078870066 -0.054277897 -0.046056256 -0.0925902 0.038598433 -0.013034502 0.17684872 -0.03560464
-0.110388 -0.04907357 -0.020548852 -0.10474015 -0.063254155 -0.070136346 0.20467663 0.01563183
-0.055728246 -0.13733187 0.16612762 -0.039887793 -0.052840374 -0.06482965 -0.01331316 0.011998749
-0.01651026 -0.13927275 0.13286106 -0.03029351 0.052955694 -0.043494035 0.1769553 0.034166753
-0.08073536 -0.014411195 -0.001900448 0.11743771 0.061712574 0.030545333 -0.059464335 0.04873326
-0.07160373 0.078229904 -0.083080575 0.0052990974 0.0118552055 -0.13341458 -0.06165017 -0.027802387
-0.017361484 -0.014705224 0.07201629 -0.0357111 -0.07388536 0.030015493 -0.012649339 0.11644936
-0.025471298 -0.06558886 0.020699732 -0.061631832 0.019529782 0.23928355 0.045577034 -0.06289039
0.07253925 0.03040828 0.03601435 0.06636241 0.012993352 -0.017670939 -0.08347517 0.14241698
0.0032572572 -0.114301555 -0.06083933 0.053963784 0.08671972 -0.078447975 0.10434209 0.026447054
-0.009146076 -0.025763065 0.025856592 -0.07496197 0.053344037 0.044692487 0.020488989 0.050034206
-0.005608889 -0.046013836 -0.09485383 0.047408387 0.13315989 0.03594061 0.031197172 -0.057321265
0.050748713 0.08409625 -0.10406413 0.06983586 0.01907908 -0.02460425 0.06696397 0.023815384
0.032779552 -0.12647064 -0.09002202 0.07229664 -0.061388623 0.07722718 -0.08474593 0.008619759
00000000: fd3b 57be 2347 ee3d ec1d cfbd e9c2 0c3e
00000010: 3652 b4bc a22f 09be f83d 773d 31fa 243d
00000020: 8b12 873d d84d bebd 5edf f83b 7663 673c
00000030: 0420 2abb d731 96bc 8b57 4e3d 3b01 9c3d
00000040: 8e56 693d 507b 193c adab 03be 9c4e a4bd
00000050: 9491 58bc 92d7 da3c 41a5 7c3c e9af ec3d
00000060: c2ab bc3b 0ee7 10be ef8b 093e e7a8 15bc
00000070: e4c1 a3bc 70c8 f83d 9fda a2bd caff 7f3d
00000080: f377 14be c1fc d53b 0e6f 8abd 83a8 813d
00000090: 34a2 bfbc 00e3 143d 7322 8d3d c119 d2bd
000000a0: 3d6a b7bd 559d 6b3d cdeb a5bd bd29 ba3d
000000b0: d11f 0ebd 8f98 a2bd 4e4a 58bd e293 0b3c
000000c0: 03a0 02be 0a9c 023e 5cc3 e53c 6cc1 51bd
000000d0: 4599 4abd c8de 8e3d e37a c23c ad4b 163e
000000e0: 5e19 623d 8690 49bd 9992 c73c 883f 773d
000000f0: e10c 243e 4b34 4d3b 5bbd e2bd f884 72bd
00000100: 2711 eebd 8da6 3d3d 8df7 3bbe d894 1ebd
00000110: a977 d0bd 663b 68bd 1d9f eebd 4d62 bf3b
00000120: 07ff 45bd abe8 023d 91f4 6ebd 27ea 333e
00000130: f8fa 56bd b789 a2bc a560 0dbe a38c 0c3e
00000140: 8cb7 37be e642 6cbd 88ba b3ba 3e21 19bd
00000150: 853c a03d cb59 603d d14a d6bd b45f 7d3d
00000160: b3e0 61bc ccd7 3a3d 94c3 1abd 69f5 fabd
00000170: d64e dd3d b162 01bc 0d93 42ba b781 443d
00000180: 82e9 f03d 09ab 093e 399f 48bb 3b71 fa3c
00000190: 56b5 79bd 5209 8cbd 0fd7 35bd 4a80 8bbe
000001a0: 2087 4a3d 255b 453d 855c 783d e9d7 843b
000001b0: 8a14 f0bd ee35 9fbd 6c5b 06be 7f26 d03d
000001c0: 6172 65bd 9c52 6abd fe8c d73d 9422 f5bc
000001d0: 1739 f0bc 2c12 a23d 8b5b 803d 7c06 dabd
000001e0: c25a 3bba 2dd4 1ebd 6461 81bd 07d6 c5bc
000001f0: f16a 9bbc 3c81 90bd 5131 903d 6364 4c3d
00000200: 8699 383c b48f f0bd 3380 023e 410e 1ebe
00000210: b54d aa3c 6849 0ebe 8e17 8b3b af55 47bd
00000220: c67a 6a3d a45f 893c 6f23 633e 9bdc 72be
00000230: e8b7 08bd 9461 a6bd 45fa 2e3d a855 a73d
00000240: a186 a1bd 8052 5ebd 7ca5 3cbd ee9f bdbd
00000250: 6419 1e3d aa8e 55bc d517 353e 2cd6 11bd
00000260: 1b13 e2bd 5e01 49bd 1156 a8bc 0182 d6bd
00000270: 658b 81bd a5a3 8fbd c096 513e 530e 803c
00000280: 4d43 64bd baa0 0cbe 5c1d 2a3e 6261 23bd
00000290: 266f 58bd 68c5 84bd 711f 5abc 6796 443c
000002a0: 8640 87bc 849d 0ebe bb0c 083e 182a f8bc
000002b0: 12e8 583d cd26 32bd c533 353e 70f2 0b3d
000002c0: 9558 a5bd ef1c 6cbc 7418 f9ba 2f83 f03d
000002d0: 53c6 7c3d 353a fa3c e090 73bd 879c 473d
000002e0: faa4 92bd 0037 a03d 2626 aabd 0da4 ad3b
000002f0: 563c 423c d59d 08be e384 7cbd d5c1 e3bc
00000300: ac39 8ebc 2eee 70bc 477d 933d cd45 12bd
00000310: 3551 97bd 0de3 f53c 2c3f 4fbc 017d ee3d
00000320: 2fa9 d0bc 7453 86bd 7c92 a93c a971 7cbd
00000330: ecfc 9f3c bf06 753e fcae 3a3d adcc 80bd
00000340: 758f 943d c91a f93c c883 133d 04e9 873d
00000350: 11e2 543c a5c2 90bc 08f5 aabd c2d5 113e
00000360: b577 553b ef16 eabd a932 79bd 2109 5d3d
00000370: 1c9a b13d 55a9 a0bd 4eb1 d53d 7ea7 d83c
00000380: 6cd9 15bc 100d d3bc 34d1 d33c a985 99bd
00000390: 477f 5a3d 780f 373d 86d8 a73c abf0 4c3d
000003a0: c5ca b7bb 0179 3cbd ba42 c2bd 4c2f 423d
000003b0: 115b 083e 7636 133d 3691 ff3c b4c9 6abd
000003c0: e2dd 4f3d a83a ac3d 931f d5bd 1a06 8f3d
000003d0: bb4b 9c3c da8e c9bc 6824 893d 7b18 c33c
000003e0: da43 063d 8581 01be 775d b8bd 4310 943d
000003f0: a372 7bbd 4929 9e3d 468f adbd e439 0d3c

layers.0.bias f4 [204]
0.07383182 0.011306416 0.057751726 -0.0012034924 0.09507266 -0.017658874 0.03665879 -0.017355295
-0.09370203 -0.023023197 -0.05886301 0.0235619 0.0766529 0.0074904184 0.024939185 -0.114382274
-0.017253194 -0.094547875 -0.05596806 -0.0222845 0.019336576 0.061869305 -0.063018896 0.003845913
-0.07585502 0.017573532 -0.05865834 0.021674432 -0.041557044 0.06898865 -0.043208923 -0.11038382
-0.15211897 0.00131291 -0.1444984 0.00074231235 0.10668351 0.06443858 -0.087937914 -0.08027883
-0.09396479 -0.056323584 -0.052593835 0.040194903 -0.10604053 -0.05230572 -0.052916016 -0.010579234
0.09678052 0.04825428 0.068654105 0.011370693 0.04709799 0.011910207 0.03416638 0.028048296
0.023735425 -0.060368285 -0.013181799 -0.03104834 -0.034307014 -0.023908323 -0.02956686 -0.059570424
-0.09809125 -0.061806895 -0.03183228 -0.044303328 -0.08981836 0.10717595 -0.10486782 -0.11386144
-0.07011359 -0.00065136014 -0.035808437 -0.05457247 0.06806768 0.08304756 0.036840115 -0.0040756734
0.11007861 -0.14961424 0.013003466 -0.087874696 -0.061219636 -0.013844688 -0.0560888 -0.045390956
0.044669572 -0.115784876 0.013045272 -0.0969758 0.037821405 0.026112897 -0.08020099 -0.09500923
0.023429729 -0.08561636 -0.023382945 -0.008777554 0.09581315 -0.015530104 -0.032161996 -0.17063318
-0.08663323 -0.0048821457 -0.06645527 -0.045162607 -0.13933542 -0.095403 0.008445479 -0.11926602
0.025796201 -0.0557465 -0.06323713 -0.057055444 0.10218089 0.026871674 -0.049548898 0.025370324
-0.002983018 -0.05417775 0.065491214 -0.05061598 -0.03935398 -0.07838846 0.034480873 0.051377714
0.07621962 0.05604323 -0.04961941 -0.0051479493 -0.13693 -0.010202685 -0.04447661 -0.037051275
0.06523668 -0.046648763 -0.064013 0.025350362 -0.02337164 0.05954878 0.0796278 0.009953068
0.06438187 -0.053101238 0.054468464 0.12141781 0.11509838 0.064447515 -0.09907377 -0.09414402
0.04801874 -0.05124267 -0.00860303 0.061099343 -0.06039562 0.010636555 0.13524607 0.01042692
0.027706107 0.069098465 -0.14516377 -0.024802327 0.061649065 -0.023262413 0.046181872 0.029133804
0.039570607 0.044467926 -0.10835211 0.049896497 0.030058404 0.07005481 0.055651702 -0.034952134
-0.13581806 -0.06710333 0.043106277 -0.001037906 0.12279557 -0.004426594 0.020312801 0.12598008
0.041310992 0.05462691 -0.14901137 0.027020982 0.049926545 -0.092805944 0.019835249 0.042330477
-0.10653468 -0.012415055 0.05447431 -0.044184964 -0.101855986 -0.072760515 0.07297956 -0.111364596
-0.08039588 0.041608598 -0.0049193986 -0.026490044
00000000: 2335 973d 8c3e 393c 138d 6c3d 81be 9dba
00000010: 74b5 c23d 58a9 90bc 8727 163d b12c 8ebc
00000020: dae6 bfbd 259b bcbc 571a 71bd e304 c13c
00000030: 32fc 9c3d 2f72 f53b 434d cc3c 4141 eabd
00000040: 9256 8dbc 51a2 c1bd c43e 65bd fc8d b6bc
00000050: bd67 9e3c ab6a 7d3d 0d10 81bd b70b 7c3b
00000060: e059 9bbd 5ef6 8f3c ba43 70bd 948e b13c
00000070: b837 2abd ec49 8d3d d7fb 30bd ea10 e2bd
00000080: 13c5 1bbe f315 ac3a 63f7 13be bd97 423a
00000090: e27c da3d 60f8 833d cb18 b4bd 3a69 a4bd
000000a0: 9d70 c0bd 8fb3 66bd a26c 57bd 69a3 243d
000000b0: c72b d9bd 863e 56bd 77be 58bd 8654 2dbc
000000c0: de34 c63d 48a6 453d 869a 8c3d 254c 3a3c
000000d0: d2e9 403d 0723 433c 0cf2 0b3d 8ac5 e53c
000000e0: cb70 c23c bc44 77bd 79f8 57bc 1759 febc
000000f0: 8385 0cbd 63db c3bc 3336 f2bc 1e00 74bd
00000100: 11e4 c8bd 3a29 7dbd 9162 02bd 6877 35bd
00000110: b0f2 b7bd 117f db3d f1c4 d6bd 3030 e9bd
00000120: b797 8fbd 0ac0 2aba deab 12bd 6287 5fbd
00000130: 1167 8b3d d714 aa3d a9e5 163d 3a8d 85bb
00000140: e570 e13d 7a34 19be 7d0c 553c a6f7 b3bd
00000150: 71c1 7abd d5d4 62bc 5fbd 65bd deeb 39bd
00000160: 71f7 363d 9f20 edbd d6bb 553c 409b c6bd
00000170: 9eea 1a3d b7ea d53c 6b40 a4bd 3394 c2bd
00000180: b4ef bf3c a157 afbd 978d bfbc bbcf 0fbc
00000190: af39 c43d fa71 7ebc 4cbc 03bd 77ba 2ebe
000001a0: c36c b1bd 68fa 9fbb b319 88bd 6dfc 38bd
000001b0: f2ad 0ebe a662 c3bd e85e 0a3c be41 f4bd
000001c0: 8e52 d33c 7156 64bd 7882 81bd f8b2 69bd
000001d0: 3744 d13d fc21 dc3c c9f3 4abd 6dd5 cf3c
000001e0: bd7e 43bb 7de9 5dbd 4220 863d b452 4fbd
000001f0: a431 21bd 218a a0bd d13b 0d3d 7071 523d
00000200: 0819 9c3d 968d 653d b93d 4bbd 21b0 a8bb
00000210: 6137 0cbe 2a29 27bc 1b2d 36bd 14c3 17bd
00000220: cf9a 853d c612 3fbd 3f19 83bd 90ab cf3c
00000230: e275 bfbc 6ce9 733d e613 a33d 3112 233c
00000240: a4da 833d af80 59bd 531a 5f3d e7a9 f83d
00000250: b3b8 eb3d 0ffd 833d 30e7 cabd 94ce c0bd
00000260: 4caf 443d d5e3 51bd b9f3 0cbc 4e43 7a3d
00000270: 6661 77bd f244 2e3c f27d 0a3e acd5 2a3c
00000280: ebf7 e23c 7f83 8d3d d0a5 14be 402e cbbc
00000290: bb83 7c3d d190 bebc 3429 3d3d 04aa ee3c
000002a0: ca14 223d 0024 363d b6e7 ddbd 4560 4c3d
000002b0: 0b3d f63c e578 8f3d 0af3 633d f829 0fbd
000002c0: e413 0bbe 786d 89bd 3590 303d 590a 88ba
000002d0: 3e7c fb3d f60c 91bb 0867 a63c ec00 013e
000002e0: b735 293d 77c0 5f3d 7096 18be 1b5b dd3c
000002f0: c77f 4c3d 0b11 bebd 887d a23c b962 2d3d
00000300: db2e dabd 8468 4bbc 7420 5f3d 4bfb 34bd
00000310: df99 d0bd 7703 95bd 4f76 953d 1f13 e4bd
00000320: 98a6 a4bd c76d 2a3d e832 a1bb a601 d9bc

layers.2.weight f4 [204, 204]
0.07617685 0.07908386 0.17871739 -0.023346767 0.05454099 -0.20180145 -0.08113969 -0.02997223
0.02525529 0.03607727 0.2126503 0.034605645 0.04213451 -0.18928768 0.064075924 -0.06041344
-0.028887106 0.17248088 0.10754574 -0.09780445 0.13116594 -0.040331345 0.25316548 0.05684428
-0.07883219 0.06874237 -0.009408823 0.07416595 0.0002566801 0.115741044 -0.1234705 -0.13037957
-0.007429694 -0.004334593 -0.026346764 -0.111071184 -0.115515895 -0.01711672 0.11543624 0.059052512
-0.066915266 0.09036016 -0.08692942 -0.041813374 -0.0055579827 0.04364944 0.050924815 -0.09649377
-0.124151826 -0.17935199 0.10085925 -0.024571074 -0.07470029 0.07329353 0.056949247 0.012523465
-0.09045938 0.006156319 0.041005533 0.06879167 0.009348604 0.087437615 -0.05169974 0.19968463
0.15359315 0.13418041 0.011148362 -0.041008253 -0.08845399 -0.02074413 -0.19933021 -0.101745546
-0.02512068 -0.13536562 -0.27374503 0.10298988 -0.037032254 0.023089575 -0.08876163 0.037185505
0.044462506 -0.28525385 -0.055719975 -0.1157457 0.009806227 -0.13358015 0.027407022 0.12530145
0.11004795 0.07959787 0.04087208 -0.11610078 -0.021786889 0.03015922 -0.017594721 -0.008828408
-0.051619172 0.06647969 -0.102453545 0.03497082 -0.0782124 0.070334904 0.002859089 0.058742944
-0.016068744 0.09017542 -0.078089975 0.03267505 -0.16846406 0.060185373 -0.052523237 0.071969226
-0.041125454 -0.0867724 -0.023476401 0.080807015 -0.23754004 0.15389414 -0.14245443 0.016908087
-0.17603464 -0.040996213 0.11129333 -0.17678311 -0.027873887 -0.0130298305 -0.055586904 -0.17650546
0.03143961 -0.098189734 0.027706316 -0.06309075 -0.08270353 -0.16703703 -0.08302243 0.11711551
0.101058826 -0.0011038166 -0.031699847 -0.12533592 0.09480087 -0.056839865 -0.13055298 -0.008040655
0.11147074 0.104068905 -0.024642512 0.040780112 -0.25034505 0.025742922 -0.047559097 0.020326402
0.15285607 0.064869195 0.070612065 -0.10671013 0.07467984 0.07250832 -0.034443293 0.0028906984
-0.02013282 -0.2002774 0.099297136 0.11135096 -0.033079665 0.036755417 0.05138896 0.09676196
-0.02943954 -0.009836706 -0.117007464 -0.067124784 0.026994485 -0.12293372 0.073592804 0.029923037
0.012692908 0.0055528795 0.043781288 0.017551392 -0.020989517 0.13539775 -0.12022774 0.00071829604
-0.024383064 0.18810073 -0.055447683 -0.101070404 0.04499447 0.16365133 0.029590458 -0.027876047
0.05997958 0.09883443 0.013746965 -0.06755929 -0.050625954 0.0143924225 -0.18406019 0.0028316714
0.014365365 -0.16287145 -0.092128925 0.119873606 0.028126173 -0.06427598 -0.029532338 -0.03772352
-0.009840685 -0.060912315 0.03813001 -0.064994425 0.15884127 0.14867385 -0.11550384 0.054301
-0.102656305 0.07131741 -0.16061254 0.07475021 -0.023036376 -0.083831914 -0.17894232 -0.121122
0.10477649 0.0026188595 0.0673083 0.059541997 -0.028814096 0.0065570665 -0.020332927 -0.015064126
0.048518848 0.093465246 -0.041182667 0.03177327 -0.029454976 0.055027436 0.087553985 -0.061283294
-0.17004313 0.08216736 -0.20959789 0.1180855 -0.051824313 0.023313865 -0.012696657 0.076418646
-0.0050594225 0.030954942 -0.049066097 0.15771464 -0.10460925 0.09179598 0.025296044 -0.011750257
00000000: 9c02 9c3d b8f6 a13d b101 373e b841 bfbc
00000010: 6066 5f3d 0aa5 4ebe 912c a6bd 5288 f5bc
00000020: 2fe4 ce3c c2c5 133d 00c1 593e a6be 0d3d
00000030: 3c95 2c3d a1d4 41be 3d3a 833d 1574 77bd
00000040: a7a4 ecbc d49e 303e f140 dc3d b34d c8bd
00000050: 5d50 063e 7b32 25bd e89e 813e 8cd5 683d
00000060: c572 a1bd cdc8 8c3d 7727 1abc 51e4 973d
00000070: 0593 8639 a409 ed3d 1ade fcbd 3982 05be
00000080: ca74 f3bb 3409 8ebb 2bd5 d7bc 4a79 e3bd
00000090: 9993 ecbd 5d38 8cbc d669 ec3d 0ce1 713d
000000a0: df0a 89bd bf0e b93d 0d08 b2bd 8044 2bbd
000000b0: bd1f b6bb c1c9 323d 8a96 503d 879e c5bd
000000c0: 5043 febd 0ca8 37be 4b8f ce3d 4749 c9bc
000000d0: 77fc 98bd eb1a 963d 9d43 693d 382f 4d3c
000000e0: c442 b9bd f2ba c93b 6bf5 273d a6e2 8c3d
000000f0: e32a 193c 7e12 b33d 1bc3 53bd 217a 4c3e
00000100: 8647 1d3e 9766 093e 9fa7 363c 45f8 27bd
00000110: 5e27 b5bd 98ef a9bc 381d 4cbe f85f d0bd
00000120: e2c9 cdbc 499d 0abe 4f28 8cbe 5cec d23d
00000130: 22af 17bd 5926 bd3c a8c8 b5bd d44f 183d
00000140: 511e 363d cb0c 92be a13a 64bd 150c edbd
00000150: 4caa 203c 3cc9 08be b184 e03c 064f 003e
00000160: d260 e13d 3504 a33d 7b69 273d 3fc6 edbd
00000170: 6b7a b2bc 7810 f73c ce22 90bc 07a5 10bc
00000180: a06e 53bd 8126 883d 2ad3 d1bd 903d 0f3d
00000190: d32d a0bd bf0b 903d 8e5f 3b3b 719c 703d
000001a0: 99a2 83bc e4ad b83d a3ed 9fbd 46d6 053d
000001b0: d881 2cbe f084 763d 9b22 57bd 9a64 933d
000001c0: 2a73 28bd bab5 b1bd 9551 c0bc 267e a53d
000001d0: b23d 73be 6d96 1d3e 93df 11be d482 8a3c
000001e0: 6d42 34be a5eb 27bd c2ed e33d a206 35be
000001f0: c757 e4bc 127b 55bc 18af 63bd d9bd 34be
00000200: d2c6 003d b317 c9bd 5bf8 e23c b935 81bd
00000210: 7860 a9bd c10b 2bbe aa07 aabd 42da ef3d
00000220: eef7 ce3d f0ad 90ba b3d7 01bd 0f58 00be
00000230: f526 c23d ebd0 68bd aeaf 05be f4bc 03bc
00000240: c54a e43d 1422 d53d 18df c9bc 0c09 273d
00000250: 3a2d 80be d2e2 d23c 54cd 42bd 8e83 a63c
00000260: 4d86 1c3e 24da 843d 0f9d 903d d78a dabd
00000270: bef1 983d 3e7f 943d 6914 0dbd df71 3d3b
00000280: 95ed a4bc 8515 4dbe 4c5c cb3d f90b e43d
00000290: 8b7e 07bd d98c 163d 3b7d 523d 222b c63d
000002a0: 312b f1bc 232a 21bc 9ca1 efbd b878 89bd
000002b0: 8a23 dd3c adc4 fbbd d3b7 963d 2821 f53c
000002c0: eaf5 4f3c eef4 b53b 0254 333d f0c7 8f3c
000002d0: 35f2 abbc b5a5 0a3e f639 f6bd 084c 3c3a
000002e0: febe c7bc 7a9d 403e 1c1d 63bd 00fe cebd
000002f0: 1f4c 383d 3794 273e b067 f23c 4f5c e4bc
00000300: 26ad 753d b569 ca3d f33a 613c 865c 8abd
00000310: 295d 4fbd 32ce 6b3c 467a 3cbe 9093 393b
00000320: b55c 6b3c c6c7 26be 17ae bcbd 4b80 f53d
00000330: dc68 e63c 20a3 83bd cded f1bc fa83 1abd
00000340: d33a 21bc 317f 79bd 372e 1c3d cc1b 85bd
00000350: 49a7 223e f53d 183e 478d ecbd ba6a 5e3d
00000360: 783d d2bd dd0e 923d 9d77 24be a316 993d
00000370: c8b6 bcbc 11b0 abbd a83c 37be d00e f8bd
00000380: 0e95 d63d 2ca1 2b3b efd8 893d 4fe2 733d
00000390: 8a0b ecbc a9dc d63b 3d91 a6bc 86cf 76bc
000003a0: b3bb 463d b56a bf3d 28af 28bd b024 023d
000003b0: 904b f1bc 7364 613d 814f b33d 3104 7bbd
000003c0: c91f 2ebe 5c47 a83d d4a0 56be d0d6 f13d
000003d0: bb45 54bd b8fc be3c a405 50bc 6181 9c3d
000003e0: 83c9 a5bb 3895 fd3c 88f9 48bd f27f 213e
000003f0: 603d d6bd 88ff bb3d a639 cf3c 2684 40bc

layers.2.bias f4 [204]
0.03467611 -0.03451984 -0.02574363 0.0108915735 -0.06997116 -0.037587408 -0.05612512 -0.12238516
-0.05631171 -0.039356995 -0.12570223 -0.026422141 -0.0020257111 -0.08271319 0.010887933 -0.082556695
-0.0794824 -0.06838932 -0.18232729 -0.05948428 0.008310891 -0.051908173 -0.1112665 -0.023399483
-0.10806837 0.0015710031 -0.028644746 -0.03906902 -0.12980781 -0.0006346542 -0.12820487 -0.09514646
-0.09379233 -0.0147326235 -0.10478792 -0.12334071 -0.048159987 0.0075362064 0.036360104 0.012165197
-0.08472274 -0.10202005 -0.06236951 -0.0061097955 -0.0544408 -0.09893095 0.035903882 -0.101127654
-0.020768309 -0.036634553 0.050024 -0.004831241 -0.085275546 -0.061558973 -0.046796963 0.03371187
0.00525476 -0.013833655 -0.0066432785 0.041222226 -0.025053125 -0.11913501 -0.05894538 -0.0015149096
0.057759985 -0.085770324 0.06368337 -0.07624935 -0.012867996 -0.081236824 -0.075656734 -0.029472793
0.007671529 -0.06829213 -0.0007713979 0.009725844 0.0035593659 -0.02736109 0.057265326 -0.0027658907
-0.014944265 -1.0180471e-05 -0.008950105 -0.025774866 -0.02936413 -0.023546176 -0.01267411 -0.03528087
-0.07539788 0.016426887 -0.004456731 -0.071456365 -0.026406698 -0.02960807 -0.009119177 -0.07620444
-0.080777854 -0.07699037 -0.031340174 -0.052700754 -0.103392534 0.009428153 -0.039211825 -0.059182957
-0.02478123 -0.004355368 -0.03604953 -0.05365013 -0.040933568 -0.058356155 0.0024996328 0.0011982415
-0.030203536 -0.047191814 -0.030847533 0.03037939 0.007503574 0.019559564 0.079813324 -0.111162804
1.6511714e-05 -0.04426428 0.040608387 0.026919136 0.05715849 -0.044189747 -0.06671922 -0.10344992
-0.03135223 -0.063656375 -0.03609747 -0.105952516 -0.058828995 -0.0006032677 -0.07529958 -0.092579
-0.09065348 -0.015741775 -0.00068451336 -0.060222372 0.017476019 0.0018434452 -0.056917746 -0.0968421
-0.11306448 -0.04581463 -0.009056555 -0.09533161 -0.018937131 -0.087361075 0.003859747 0.032001402
-0.08151035 -0.035374172 -0.10476307 -0.024894334 -0.053497434 -0.0013392225 -0.011976504 0.008103609
0.00753746 -0.05933962 -0.1389889 -0.10343077 -0.01535294 -0.1131867 0.0031859344 0.0144797135
0.018971581 -0.03183854 -0.08553725 0.0030845378 0.02579992 0.014497031 -0.049334638 0.05257606
-0.02229805 0.027627146 -0.07225742 -0.045107454 -0.062154196 -0.0413988 -0.057629935 -0.02618005
-0.0036586586 -0.039487924 -0.023339886 0.035989143 -0.0155974105 -0.06786746 0.0037603376 -0.07703123
-0.072002076 -0.079808064 -0.042605445 -0.08857008 0.016564887 -0.039859083 -0.07417587 -0.05446755
-0.012862488 -0.08548303 0.025274461 -0.04925841
00000000: 8908 0e3d ad64 0dbd 4ee4 d2bc 9272 323c
00000010: 0a4d 8fbd 41f5 19bd 74e3 65bd 12a5 fabd
00000020: 1ca7 66bd cd34 21bd 16b8 00be 3f73 d8bc
00000030: cbc1 04bb 8865 a9bd 4d63 323c 7c13 a9bd
00000040: abc7 a2bd b30f 8cbd 01b4 3abe caa5 73bd
00000050: 672a 083c aa9d 54bd b1df e3bd 46b0 bfbc
00000060: f352 ddbd 1eea cd3a 63a8 eabc d606 20bd
00000070: 57ec 04be ec5e 26ba 2348 03be 26dc c2bd
00000080: 3116 c0bd 1a61 71bc 0d9b d6bd 0e9a fcbd
00000090: 6843 45bd 48f2 f63b 55ee 143d 8950 473c
000000a0: 1e83 adbd e3ef d0bd 2c77 7fbd ae34 c8bb
000000b0: 51fd 5ebd 4f9c cabd f30f 133d 041c cfbd
000000c0: 4d22 aabc 1d0e 16bd f7e5 4c3d 634f 9ebb
000000d0: f2a4 aebd 4325 7cbd 2cae 3fbd 7515 0a3d
000000e0: 1f30 ac3b 8ea6 62bc dcaf d9bb a3d8 283d
000000f0: 363c cdbc 0efd f3bd b670 71bd ee8f c6ba
00000100: bc95 6c3d 5aa8 afbd 6d6c 823d 9f28 9cbd
00000110: 49d4 52bc 7e5f a6bd ebf1 9abd ed70 f1bc
00000120: 7361 fb3b bfdc 8bbd a337 4aba 2559 1f3c
00000130: 4044 693b 5d24 e0bc 0c8f 6a3d f243 35bb
00000140: cad8 74bc cacc 2ab7 76a3 12bc d025 d3bc
00000150: 0b8d f0bc e9e3 c0bc 12a7 4fbc ac82 10bd
00000160: 346a 9abd ae91 863c c509 92bb b757 92bd
00000170: dc52 d8bc a08c f2bc 9a68 15bc 1311 9cbd
00000180: dc6e a5bd 21ad 9dbd 8e5e 00bd bfdc 57bd
00000190: 77bf d3bd 8a78 1a3c 949c 20bd d469 72bd
000001a0: 0202 cbbc 7ab7 8ebb aca8 13bd 3dc0 5bbd
000001b0: f5a9 27bd dd06 6fbd e1d0 233b 500e 9d3a
000001c0: 686d f7bc 344c 41bd f7b3 fcbc 33de f83c
000001d0: 8ae0 f53b 613b a03c 2b75 a33d 53a9 e3bd
000001e0: a382 8a37 764e 35bd fb54 263d 8585 dc3c
000001f0: 051f 6a3d 4f00 35bd 16a4 88bd 8ddd d3bd
00000200: 326b 00bd 465e 82bd f1da 13bd a2fd d8bd
00000210: acf6 70bd 9c24 1eba ab36 9abd 0f9a bdbd
00000220: 88a8 b9bd e5f4 80bc ea70 33ba bcab 76bd
00000230: de29 8f3c c29f f13a 9522 69bd 2755 c6bd
00000240: 5a8e e7bd 1fa8 3bbd f261 14bc 383d c3bd
00000250: 0b22 9bbc 5dea b2bd cff3 7c3b e713 033d
00000260: e6ee a6bd 82e4 10bd 058e d6bd 34ef cbbc
00000270: 2020 5bbd da88 afba 1939 44bc 00c5 043c
00000280: ccfc f63b 1a0e 73bd 1b53 0ebe 83d3 d3bd
00000290: e68a 7bbc 6ece e7bd 1ccb 503b 523c 6d3c
000002a0: 4a6a 9b3c 2169 02bd 272e afbd f525 4a3b
000002b0: 5b5a d33c f584 6d3c 1e13 4abd ff59 573d
000002c0: 66aa b6bc 5352 e23c b3fb 93bd 98c2 38bd
000002d0: 6695 7ebd ca91 29bd 5e0d 6cbd 8b77 d6bc
000002e0: 1bc6 6fbb 17be 21bd 4a33 bfbc 5a69 133d
000002f0: 488c 7fbc 18fe 8abd ff6f 763b 8dc2 9dbd
00000300: d375 93bd 6972 a3bd 0c83 2ebd 3b64 b5bd
00000310: 16b3 873c 4743 23bd 85e9 97bd 5e19 5fbd
00000320: 2fbd 52bc ba11 afbd 630c cf3c 30c3 49bd

layers.5.weight f4 [204, 204]
0.006331001 0.041637987 0.11563033 0.024255682 -0.19425306 -0.14429091 -0.15228462 -0.49038437
-0.13850808 0.08166216 -0.07990024 0.06802434 -0.050856967 0.20188586 -0.1786489 0.04645726
-0.091533795 0.18738994 -0.46567294 -0.036638938 -0.39078996 -0.09136974 -0.30524117 -0.07561277
0.048024576 0.066068694 0.037980385 -0.02185247 -0.15129402 -0.075354226 0.026725423 -0.2788099
-0.053608403 0.09148693 -0.15057117 0.077373125 0.011139194 -0.31375974 -0.042918 -0.02175939
0.022125393 0.033910006 -0.3826744 -0.05942903 -0.22867134 0.07933299 -0.20074566 -0.17095321
-0.15373021 -0.010147545 0.022664858 -0.25302118 0.02982553 -0.33560708 -0.27647376 -0.104025945
0.03361404 -0.17848068 -0.03133749 0.0057261065 -0.076187834 -0.12576291 -0.15471491 -0.32876965
-0.06160081 -0.51577175 0.024792945 -0.28206792 -0.2739709 0.07664047 0.064913884 -0.11711111
0.27197084 -0.0042409734 -0.13290289 -0.18701616 -0.081723794 0.026586717 0.03080502 0.00261855
0.04582896 -0.10390509 0.05082065 0.017065242 0.09237669 -0.4356383 -0.10175854 0.0017264208
-0.013275384 0.04781475 -0.22392242 -0.3364928 0.08645048 -0.2790165 0.09677897 -0.063519284
-0.31086782 -0.3527767 0.051193796 0.2712693 -0.48498183 0.05547651 -0.30374616 -0.087922595
0.01487295 0.054651447 -0.024817947 -0.013704344 0.029183902 0.1082157 -0.019688163 -0.0021559612
0.15600254 -0.15069462 -0.06445117 -0.10593856 -0.36011565 0.061802655 0.19182718 -0.20632498
-0.06825544 0.06380432 -0.23771983 -0.0035609563 0.047482643 0.09507618 -0.022995843 -0.015279859
0.14122665 -0.11222121 -0.017172627 -0.15805033 -0.033294693 -0.024838354 -0.11962062 9.619871e-05
0.04314377 -0.04613977 -0.04331189 -0.3535267 0.043725975 -0.036073986 -0.07253824 0.008599352
-0.06405693 0.102452755 0.16364886 0.09913616 -0.028778503 -0.12350038 0.045013584 0.028134698
-0.09153344 -0.063372925 -0.27315176 -0.036871925 -0.44367242 -0.059290558 -0.07309256 -0.04367354
-0.31422287 0.026715579 0.010967131 -0.14398478 0.011202854 0.011271929 -0.0823463 -0.14750472
0.11404225 0.08485843 0.064755864 0.11355076 -0.0331529 -0.17796701 -0.044276465 0.10183242
0.00973393 0.10000681 -0.119070716 -0.10159222 -0.058150195 -0.0035070006 0.012205409 -0.32014567
-0.024354098 -0.03807973 0.19632772 -0.11089037 0.02797854 -0.18506716 -0.154078 -0.33903334
0.07163617 -0.11757858 -0.16798589 -0.17496604 0.025803596 -0.14567196 0.14699498 -0.094148375
0.041677 -0.022476861 -0.03919306 -0.1346682 0.018985601 -0.15733804 -0.1068981 -0.100570895
-0.14501232 -0.2877895 -0.244568 0.061318543 -0.0741354 -0.109918214 -0.108711354 -0.032457788
0.0070225107 -0.19981681 0.060386818 -0.04039474 -0.27705714 -0.09160879 -0.08511927 -0.28079364
-0.23446941 -0.16556434 -0.09421483 0.0950241 0.12891784 -0.1515172 -0.12669031 -0.03423199
-0.16785607 -0.05095186 -0.10148652 -0.27279967 -0.041646227 -0.07276701 -0.12243829 0.16866545
-0.043392893 0.123653315 -0.17483492 0.013542728 -0.044341367 -0.13274398 -0.3323512 0.02260587
0.062455066 0.016522843 -0.11159458 0.15260264 0.03491671 0.14797273 -0.2599791 0.05808205
00000000: 4974 cf3b 988c 2a3d 98cf ec3d dab3 c63c
00000010: 46ea 46be ffc0 13be 80f0 1bbe a913 fbbe
00000020: 10d5 0dbe 7e3e a73d bda2 a3bd 5850 8b3d
00000030: 654f 50bd 2bbb 4e3e bdef 36be f849 3e3d
00000040: 1276 bbbd 26e3 3f3e af6c eebe b612 16bd
00000050: 9f15 c8be 0f20 bbbd 9248 9cbe deda 9abd
00000060: 6bb5 443d 064f 873d 5291 1b3d f303 b3bc
00000070: d2ec 1abe 5153 9abd 46ef da3c 2cc0 8ebe
00000080: 7c94 5bbd 805d bb3d 542f 1abe cd75 9e3d
00000090: 2a81 363c 1ea5 a0be c9ca 2fbd c040 b2bc
000000a0: 5040 b53c 38e5 0a3d e6ed c3be db6b 73bd
000000b0: d228 6abe 5679 a23d 4590 4dbe 5c0e 2fbe
000000c0: 746b 1dbe e341 26bc a7ab b93c fe8b 81be
000000d0: ab54 f43c b1d4 abbe f88d 8dbe 8e0b d5bd
000000e0: e0ae 093d a4c3 36be bd5b 00bd 10a2 bb3b
000000f0: 5e08 9cbd fec7 00be 966d 1ebe 7f54 a8be
00000100: 2251 7cbd 9e09 04bf 931a cb3c 356b 90be
00000110: ea45 8cbe aef5 9c3d 92f1 843d f3d7 efbd
00000120: c33f 8b3e ddf7 8abb b217 08be 2a81 3fbe
00000130: ce5e a7bd 63cc d93c cf5a fc3c fb9b 2b3b
00000140: 26b7 3b3d 31cc d4bd 5029 503d 68cc 8b3c
00000150: fd2f bd3d fc0b dfbe c866 d0bd 1249 e23a
00000160: ff80 59bc 66d9 433d eb4b 65be c948 acbe
00000170: f30c b13d 40db 8ebe 0d34 c63d 6616 82bd
00000180: 112a 9fbe 269f b4be 96b0 513d cfe3 8a3e
00000190: 8a4f f8be 563b 633d 9e84 9bbe c310 b4bd
000001a0: acad 733c 32da 5f3d 024f cbbc 2f88 60bc
000001b0: 1413 ef3c 31a0 dd3d 1249 a1bc 074b 0dbb
000001c0: 21bf 1f3e b14f 1abe fafe 83bd 51f6 d8bd
000001d0: 1461 b8be c824 7d3d 586e 443e db46 53be
000001e0: 82c9 8bbd d7ab 823d d46c 73be ef5e 69bb
000001f0: 297d 423d 4db7 c23d c761 bcbc 6058 7abc
00000200: b89d 103e 3cd4 e5bd 9cad 8cbc f2d7 21be
00000210: 0460 08bd ce79 cbbc a8fb f4bd 4abe c938
00000220: 86b7 303d 0efd 3cbd cf67 31bd 7401 b5be
00000230: 021a 333d 51c2 13bd ee8e 94bd 4ce4 0c3c
00000240: 4830 83bd c0d2 d13d 9193 273e e607 cb3d
00000250: e5c0 ebbc c4ed fcbd 2a60 383d bd7a e63c
00000260: e275 bbbd aac9 81bd 8cda 8bbe 0407 17bd
00000270: 0829 e3be a8da 72bd 8db1 95bd 07e3 32bd
00000280: d2e1 a0be a1da da3c 7baf 333c bf70 13be
00000290: 2d8c 373c e6ad 383c 2da5 a8bd 7a0b 17be
000002a0: fc8e e93d 42ca ad3d b99e 843d 4d8d e83d
000002b0: 56cb 07bd fc3c 36be 3d5b 35bd 848d d03d
000002c0: 107b 1f3c 5fd0 cc3d 59db f3bd 950f d0bd
000002d0: e62e 6ebd b5d5 65bb 32f9 473c 22ea a3be
000002e0: 3f82 c7bc 7ef9 1bbd 220a 493e 7e1a e3bd
000002f0: 4033 e53c 3f82 3dbe a0c6 1dbe c795 adbe
00000300: fcb5 923d 0acd f0bd 7e04 2cbe 4c2a 33be
00000310: 1062 d33c 082b 15be da85 163e ddd0 c0bd
00000320: 80b5 2a3d 6521 b8bc e788 20bd 76e6 09be
00000330: b187 9b3c 391d 21be 64ed dabd 1df8 cdbd
00000340: 1c7e 14be 2559 93be 0970 7abe 2729 7b3d
00000350: 4dd4 97bd cd1c e1bd 0fa4 debd 75f2 04bd
00000360: 171d e63b c79c 4cbe 2b58 773d f474 25bd
00000370: 6fda 8dbe 649d bbbd 0353 aebd 2fc4 8fbe
00000380: c018 70be b389 29be b4f3 c0bd ff9b c23d
00000390: 0a03 043e 5327 1bbe 1bbb 01be d836 0cbd
000003a0: 76e2 2bbe e6b2 50bd 2ad8 cfbd 66ac 8bbe
000003b0: 3c95 2abd df06 95bd edc0 fabd a3b6 2c3e
000003c0: bfbc 31bd f33d fd3d ed07 33be 51e2 5d3c
000003d0: 4b9f 35bd 0aee 07be f029 aabe f22f b93c
000003e0: e2d0 7f3d ea5a 873c b38b e4bd de43 1c3e
000003f0: d304 0f3d 2a86 173e fb1b 85be 72e7 6d3d

layers.5.bias f4 [204]
-0.06116139 -0.013913054 -0.05694725 -0.022151878 -0.0030979563 -0.007754986 -0.046786048 -0.012028411
-0.021251278 0.0076589067 -0.011878409 -0.0042065377 -0.08740877 -0.010374578 0.0063641034 -0.025186509
-0.019726647 -0.00012173923 -0.001365142 -0.0032811807 -0.011606469 0.009041205 -0.01456203 -0.0010884631
-0.031131206 -0.005741956 0.00022588673 0.011591798 -0.05428975 -0.021742463 -0.07202078 -0.011005366
-0.015405651 -0.041341066 -0.026817445 -0.012874732 -0.012537602 -0.0169088 -0.0021484909 -0.008386133
-0.0042165457 0.0033034247 -0.0077152867 -0.02231309 0.0060827485 0.00053050055 0.005384124 0.008838352
-0.05687911 0.005121795 0.003967264 0.0034242969 -0.027856866 0.0020689322 -0.0644973 -0.0022187026
-0.051335793 -0.017227124 -0.022831526 -0.07987393 0.007160993 -0.09201008 -0.019986153 0.004345386
-0.004018071 -0.0011834254 -0.004792429 0.0032734945 -0.078570485 -0.063163735 -0.06073258 0.010380978
-0.0019968038 -0.025631376 0.012081502 -0.00125109 -0.096368894 0.004297229 0.0025505414 0.0012561826
-0.122351535 0.004605721 -0.023660151 -0.020983124 0.0031700272 -0.012334092 -0.051224396 0.008454346
-0.024347892 -0.09470624 -0.012033266 -0.008617958 -0.0039524366 -0.0039798133 0.00018153815 -0.020084608
0.008222531 -0.017550956 -0.01254472 -0.15139243 -0.064833425 0.007463573 -0.010802973 -0.006635516
0.011961726 0.012960413 -0.02923194 -0.024480183 0.0020021438 -0.04474226 0.0005045545 -0.019826263
-0.065227725 0.0038612247 -0.053727593 -0.07903164 0.0038632508 -0.024060367 -0.008275956 -0.008337039
0.0072329477 -0.029830854 -0.059046563 -0.028090524 -0.01994047 -0.0034562412 -0.12159966 0.0037567865
-0.018515293 -0.06774984 -0.029238379 0.00032110632 -0.089846596 -0.03921709 -0.00037690182 -0.06292208
-0.055022407 0.0031458149 -0.035474166 -0.057959266 -0.0061803972 0.0016912987 -0.04999095 -0.0062198048
-0.004448414 -0.056069892 -0.03311094 -0.007260854 -0.015131916 -0.0681371 -0.0055553764 -0.040792704
0.005406693 -0.0019761424 -0.0020472598 0.0026904885 -0.022189997 -0.019669225 0.012322463 -0.20038973
-0.10786873 -0.046006512 -0.0743376 -0.0051007094 -0.0038580585 -0.012091953 0.01387578 -0.0065392377
-0.01946275 -0.15931153 -0.043908976 0.008075546 -0.04793051 0.005641404 -0.03614501 -0.021296293
-0.0020181064 -0.002340654 -0.02830865 -0.13981567 -0.009765463 -0.03021351 -0.010797355 0.003501128
-0.012927651 -0.047851577 0.011622817 -0.0007467218 -0.0023890862 -0.020102015 -0.0015816459 0.01233915
0.009603744 -0.07534601 -0.17846976 -0.058476962 -0.018742329 0.0020728847 -0.031373 0.0032965674
-0.11052925 -0.018719828 0.0011378196 -0.026058398
00000000: 5e84 7abd 94f3 63bc 8541 69bd db77 b5bc
00000010: 1507 4bbb 8a1d febb baa2 3fbd d012 45bc
00000020: 2917 aebc 91f7 fa3b a99d 42bc ffd6 89bb
00000030: 5f03 b3bd 22fa 29bc f889 d03b f053 cebc
00000040: c799 a1bc 404e ffb8 90ee b2ba 1409 57bb
00000050: 0f29 3ebc 9021 143c 9595 6ebc c3aa 8eba
00000060: df06 ffbc 0527 bcbb 02dc 6c39 86eb 3d3c
00000070: ee5e 5ebd 401d b2bc a17f 93bd da4f 34bc
00000080: fc67 7cbc 4055 29bd 42b0 dbbc 8af0 52bc
00000090: 846a 4dbc 5384 8abc b2cd 0cbb fe65 09bc
000000a0: f32a 8abb 457e 583b 84d0 fcbb f1c9 b6bc
000000b0: cb51 c73b 4a11 0b3a 4e6d b03b bcce 103c
000000c0: 12fa 68bd bbd4 a73b d3ff 813b 2b6a 603b
000000d0: 1534 e4bc ec96 073b 2917 84bd a767 11bb
000000e0: 7b45 52bd e61f 8dbc 2e09 bbbc f194 a3bd
000000f0: c3a6 ea3b c86f bcbd 00ba a3bc bd63 8e3b
00000100: 06aa 83bb 2b1d 9bba cf09 9dbb 2088 563b
00000110: 90e9 a0bd fd5b 81bd bac2 78bd fa14 2a3c
00000120: cfdc 02bb e4f8 d1bc 7ef1 453c 9dfb a3ba
00000130: 0e5d c5bd c5cf 8c3b fc26 273b 7ea6 a43a
00000140: 7193 fabd 97eb 963b efd2 c1bc cde4 abbc
00000150: 3bc0 4f3b ee14 4abc acd0 51bd 1984 0a3c
00000160: 3b75 c7bc 58f5 c1bd 2d27 45bc 5632 0dbc
00000170: 7183 81bb 1869 82bb 475b 3e39 7a88 a4bc
00000180: cbb7 063c 06c7 8fbc 5f88 4dbc 9e06 1bbe
00000190: 63c7 84bd fd90 f43b f4fe 30bc be6e d9bb
000001a0: 1dfb 433c e957 543c d277 efbc aa8a c8bc
000001b0: 6636 033b a943 37bd 1444 043a b06a a2bc
000001c0: 1d96 85bd 9a0c 7d3b 7711 5cbd 57db a1bd
000001d0: 982e 7d3b 3f1a c5bc e097 07bc 1398 08bc
000001e0: 5d02 ed3b d65f f4bc cfda 71bd 191e e6bc
000001f0: 325a a3bc 1b82 62bb 3e09 f9bd 6b34 763b
00000200: 62ad 97bc 6ec0 8abd 5385 efbc 295a a839
00000210: 7e01 b8bd 19a2 20bd e89a c5b9 4bdd 80bd
00000220: 2d5f 61bd 042a 4e3b 5c4d 11bd b266 6dbd
00000230: ee84 cabb 91ae dd3a 4fc3 4cbd 81cf cbbb
00000240: 00c4 91bb 8ba9 65bd 569f 07bd 75ec edbb
00000250: dbeb 77bc 778b 8bbd e009 b6bb 4016 27bd
00000260: a12a b13b 2b82 01bb 522b 06bb e852 303b
00000270: ccc7 b5bc 5b21 a1bc 28e4 493c f732 4dbe
00000280: 48ea dcbd 5371 3cbd 503e 98bd da23 a7bb
00000290: 7bd7 7cbb 541d 46bc 3d57 633c 1a47 d6bb
000002a0: 5870 9fbc 9022 23be e6d9 33bd 4b4f 043c
000002b0: c852 44bd 87db b83b ca0c 14bd 9075 aebc
000002c0: 3542 04bb a865 19bb 8be7 e7bc d72b 0fbe
000002d0: 52ff 1fbc 5382 f7bc 64e7 30bc 2e73 653b
000002e0: 80ce 53bc 0400 44bd a16d 3e3c a7bf 43ba
000002f0: 3792 1cbb fbac a4bc 3b4f cfba 252a 4a3c
00000300: 0659 1d3c 024f 9abd c7c0 36be 8a85 6fbd
00000310: 8389 99bc 3cd9 073b fa80 00bd 390b 583b
00000320: 295d e2bd 535a 99bc e422 953a 6c78 d5bc

layers.8.weight f4 [204, 204]
-0.12586832 -0.17442182 -0.09022221 -0.14409775 -0.043978717 0.06435733 0.047037736 0.14879383
-0.08261386 -0.075910494 -0.0013561995 -0.031164426 0.0013425613 0.035756823 0.038593873 -0.10559833
-0.13834895 -0.12571058 0.077657595 -0.06541164 0.02337562 -0.09281441 -0.2528722 0.039657507
0.043136664 0.186234 0.023284102 0.06988552 0.22548409 -0.110699095 0.15825114 -0.043393746
-0.12661377 0.005625096 0.044503402 -0.24672797 0.07043807 0.04431907 0.044873964 0.005135867
-0.070504114 0.031716395 -0.12977085 0.01769523 -0.030140482 0.15832268 -0.021101553 -0.10519816
-0.04799456 -0.2515337 0.017397271 0.023937918 -0.04950214 -0.020645063 0.035773367 -0.05355564
-0.10776062 -0.123791985 -0.06278102 -0.02304235 -0.18943156 0.058547646 -0.038913473 -0.14218298
0.072209135 0.0043081236 0.01828843 -0.09096448 0.023729298 0.06060146 0.010724782 0.06643511
-0.2515829 -0.1985161 0.17134231 0.24476859 -0.036804896 0.11160228 -0.009194383 -0.0059493245
0.04483205 0.0048245993 0.1406485 -0.103296675 -0.15082368 -0.007250111 -0.040851615 -0.14176404
0.14644031 -0.0143217575 -0.12353167 0.09513967 -0.17123052 0.03646516 -0.21864901 -0.00031748926
0.0064132507 -0.07832581 -0.10141112 -0.031635184 0.004668286 0.066699915 -0.12118006 -0.088191666
0.0005194784 0.22796237 0.118391536 -0.008710654 -0.04495723 0.08352428 0.16472332 -0.08226312
0.07818416 0.100783035 0.14412789 -0.13687663 -0.01344438 -0.015181306 -0.23383284 0.017231742
-0.18846901 0.015860643 -0.018616652 -0.11150251 -0.19793563 -0.021301078 0.13244146 0.03698859
-0.025765877 -0.13015191 -0.09211623 0.04384167 0.024996748 -0.06817699 -0.04285189 0.040199894
0.18554184 0.03229697 -0.080808535 -0.1924657 -0.1226079 0.12489712 -0.006977273 -0.081486054
0.041492898 -0.0699002 -0.06611156 -0.19408393 0.016934672 -0.12765701 0.05095963 -0.35580853
-0.008346109 -0.091433175 0.015503391 -0.021666633 0.12462931 0.027460355 0.14627005 0.121914364
0.13470243 0.14079788 0.100964785 0.052372586 -0.048566993 0.016996058 -0.29675168 0.04075349
0.057822354 -0.0042574974 -0.013095174 -0.10550429 -0.071550764 -0.06911884 -0.07344128 -0.1020571
-0.1882419 -0.14939462 0.069860645 0.11593548 -0.20362568 -0.10143091 -0.00024837407 0.019009512
-0.068645 0.033080835 -0.080109045 0.06570654 -0.1409385 -0.29740044 0.09656346 0.032060225
-0.14195986 0.2879003 -0.07776619 -0.08608494 0.11512649 -0.12290848 0.108634576 -0.060845617
-0.016758008 0.037084907 -0.20782872 -0.043629337 0.02556136 0.026538255 -0.05248193 -0.1586274
-0.1307781 -0.010667553 0.013463246 -0.09029621 -0.2720505 -0.061428666 0.12925333 -0.22880024
0.06239393 -0.30279124 -0.23533994 0.049595583 0.18921986 0.09535279 0.061070465 -0.06923238
-0.057826184 0.03304405 0.016973648 0.09100934 -0.06177443 -0.11824524 0.09801336 0.112189
-0.102365784 -0.07967012 0.013327872 -0.1299883 0.104380965 0.16102377 0.028587162 0.009655815
-0.11644943 -0.091442555 -0.16759713 -0.052590635 -0.086250655 -0.053612515 0.2546452 0.03936241
-0.20345394 -0.25813246 -0.059640612 -0.12877522 0.11188037 -0.05197448 0.10446868 -0.13886006
00000000: a0e3 00be a29b 32be 6cc6 b8bd 5c8e 13be
00000010: 0723 34bd c7cd 833d a4aa 403d 695d 183e
00000020: 7531 a9bd f676 9bbd 81c2 b1ba 8a4c ffbc
00000030: e2f8 af3a bf75 123d 9c14 1e3d f043 d8bd
00000040: 59ab 0dbe 46ba 00be f20a 9f3d 8af6 85bd
00000050: 3a7e bf3c 7b15 bebd 7778 81be e96f 223d
00000060: 12b0 303d 20b4 3e3e 4dbe be3c 2420 8f3d
00000070: 4de5 663e 35b6 e2bd 960c 223e a4bd 31bd
00000080: 0aa7 01be ba52 b83b 3349 363d 42a6 7cbe
00000090: d641 903d ea87 353d c3cd 373d c64a a83b
000000a0: 7664 90bd 0de9 013d a6e2 04be 96f5 903c
000000b0: 2ce9 f6bc 571f 223e 2add acbc 2272 d7bd
000000c0: f295 44bd 06c9 80be b984 8e3c 7419 c43c
000000d0: c2c2 4abd d61f a9bc 1887 123d 295d 5bbd
000000e0: 9ab1 dcbd a786 fdbd 5693 80bd 4fc3 bcbc
000000f0: 59fa 41be a8cf 6f3d bc63 1fbd 6a98 11be
00000100: 62e2 933d 292b 8d3b 9ed1 953c 964b babd
00000110: f263 c23c 3d39 783d ffb6 2f3c 220f 883d
00000120: 79cf 80be ce47 4bbe 5c74 2f3e 9ea4 7a3e
00000130: bbc0 16bd bc8f e43d 0aa4 16bc 8df2 c2bb
00000140: d0a1 373d ac17 9e3b 2906 103e 358d d3bd
00000150: 8671 1abe 5792 edbb 0654 27bd 982a 11be
00000160: 73f4 153e cea5 6abc 2cfe fcbd 96d8 c23d
00000170: 0e57 2fbe 7e5c 153d 87e5 5fbe b074 a6b9
00000180: 3f26 d23b 4869 a0bd a2b0 cfbd e593 01bd
00000190: 6cf8 983b f799 883d 402d f8bd d59d b4bd
000001a0: 9b2d 083a f86e 693e 4377 f23d 22b7 0ebc
000001b0: 1325 38bd c70e ab3d 3bad 283e 9179 a8bd
000001c0: 041f a03d 5667 ce3d 4396 133e 6329 0cbe
000001d0: d145 5cbc 03bb 78bc e071 6fbe 9529 8d3c
000001e0: 05fe 40be 2eee 813c f381 98bc 6e5b e4bd
000001f0: a3af 4abe 997f aebc bc9e 073e 5981 173d
00000200: f612 d3bc 8b46 05be 6fa7 bcbd 5393 333d
00000210: fbc5 cc3c 61a0 8bbd 7785 2fbd a5a8 243d
00000220: aefe 3d3e d449 043d f27e a5bd ba15 45be
00000230: da19 fbbd 10ca ff3d 9ca1 e4bb 29e2 a6bd
00000240: 75f4 293d d627 8fbd 7f65 87bd f0bd 46be
00000250: 95ba 8a3c 85b8 02be 0cbb 503d 892c b6be
00000260: 1ebe 08bc 5141 bbbd ef01 7e3c 397e b1bc
00000270: a73d ff3d 8af4 e03c d1c7 153e 3dae f93d
00000280: 6fef 093e 522d 103e a0c6 ce3d a384 563d
00000290: 2fee 46bd 513b 8b3c d6ef 97be 22ed 263d
000002a0: 22d7 6c3d 7a82 8bbb 248d 56bc a212 d8bd
000002b0: 3589 92bd 2e8e 8dbd 6268 96bd 5003 d1bd
000002c0: 7cc2 40be e7fa 18be 1913 8f3d 956f ed3d
000002d0: 4083 50be 02bb cfbd 3438 82b9 d6b9 9b3c
000002e0: c095 8cbd c57f 073d 3610 a4bd 2791 863d
000002f0: 2f52 10be df44 98be 10c3 c53d 9551 033d
00000300: ed5d 11be ab67 933e e143 9fbd 4d4d b0bd
00000310: 70c7 eb3d 71b7 fbbd ce7b de3d 4139 79bd
00000320: 1748 89bc 58e6 173d 0dd1 54be adb4 32bd
00000330: 0f66 d13c c166 d93c 4bf7 56bd 396f 22be
00000340: b2ea 05be f6c6 2ebc f294 5c3c 38ed b8bd
00000350: 344a 8bbe a09c 7bbd fc5a 043e 9c4a 6abe
00000360: c790 7f3d 7407 9bbe f4fc 70be bd24 4b3d
00000370: dac2 413e 5348 c33d 0625 7a3d b5c9 8dbd
00000380: 26db 6cbd 3359 073d 520c 8b3c 1b63 ba3d
00000390: 2f07 7dbd 8f2a f2bd 3abb c83d 59c3 e53d
000003a0: 27a5 d1bd 162a a3bd 265d 5a3c a71b 05be
000003b0: b0c5 d53d 6ae3 243e a02f ea3c 6c33 1e3c
000003c0: 0a7d eebd 3c46 bbbd 959e 2bbe 4769 57bd
000003d0: 2fa4 b0bd cc98 5bbd db60 823e 7a3a 213d
000003e0: 3b56 50be f029 84be b749 74bd a7dd 03be
000003f0: 8921 e53d 31e3 54bd adf3 d53d 5531 0ebe

layers.8.bias f4 [204]
0.019856395 0.009727847 -0.0012239722 -0.0037760208 -0.0027557595 0.022962755 0.014721302 -0.0013458261
0.013194178 0.017748749 0.00025940474 0.017499521 0.02418955 -0.23099108 -0.018918257 -0.02484482
0.014899045 0.020200329 0.012942051 -0.025155988 0.02250802 -0.078606956 0.010755995 0.00062065816
0.01452478 -0.004075789 -0.010675889 0.02508821 -0.022355195 0.022709489 -0.010036928 -0.043029908
0.0076624868 0.02535953 0.012027425 0.02104267 0.036739137 -0.09825609 0.008487804 0.009229936
0.01207713 -0.03332183 -0.026476648 0.022497002 -0.0018786554 0.006674815 0.02533975 0.011757143
-0.108796515 -0.11919486 0.015823415 0.041814342 -0.024855604 -0.007090111 -0.116478674 0.012364876
-0.00070848287 0.012350231 -0.0036219794 0.019351382 0.024649229 -0.015862135 0.007908004 -0.06201122
0.016186656 0.022325844 0.0056944164 -0.036186174 -0.01289546 0.010380048 0.016369414 0.010550502
-0.012025148 0.0077864337 -0.014658411 0.02604146 0.008916889 0.016664505 -0.0071466393 0.028940482
-0.019537916 -0.056643046 0.0030254254 0.025139114 0.018932212 -0.017298795 0.013803446 0.021447802
0.015767306 -0.012145159 0.018892374 0.03159249 0.011477603 -0.0072109504 0.01751077 -0.07796938
0.005656025 0.0027426204 0.01873142 -0.3076839 0.00869137 0.0026855823 0.011506203 0.020136543
0.017981214 -0.035009377 0.012889854 -0.029842936 0.01947304 0.0039033452 0.012007027 0.046429977
0.0025954412 0.025406744 0.01901286 0.024579993 0.025323551 -0.39910093 -0.12080479 -0.0038944166
-0.12823486 0.003245881 0.01635758 -0.062699355 0.02484296 -0.014897602 0.0091584185 0.027371826
0.010082 -9.08497e-05 -0.23383516 0.013300713 -0.03875935 2.2350709e-05 -0.02790236 0.0130737275
-0.0017142383 -0.015742442 0.0036494052 0.02824726 0.017622536 0.020583047 -0.03783619 -0.006680831
0.022762941 0.0067620864 -0.012329223 -0.0043517677 0.016116375 -0.002085309 0.031199476 0.020179002
0.023101142 0.023517715 -0.011537869 0.010138244 -0.0011113579 0.036635913 0.016112795 0.010454497
0.0048579294 0.032192897 0.012696112 -0.18023911 -0.021582479 0.0049412143 0.013434835 -0.0012316112
-0.0033752392 0.008637802 -0.0012286361 -0.0045825043 0.014928951 0.0030601355 0.027934905 0.04378354
0.032609265 0.00931656 -0.076710604 0.0076120878 0.019521544 0.0038405678 -0.0056766616 -0.04649824
-0.0475227 0.015188176 0.0019507002 -0.003871204 0.0099040335 0.02256964 -0.0014789923 0.005370754
0.0017297753 0.013062143 0.0056729754 0.015182089 0.006903035 0.03354057 0.0037888535 -0.0059692743
0.031831697 -0.044456568 -0.01641429 0.0260571
00000000: e1a9 a23c 8c61 1f3c b16d a0ba 1e77 77bb
00000010: f999 34bb 631c bc3c 9e31 713c 6e66 b0ba
00000020: 652c 583c d365 913c b700 8839 285b 8f3c
00000030: 2a29 c63c ed88 6cbe 76fa 9abc 5d87 cbbc
00000040: 201b 743c 297b a53c e50a 543c ee13 cebc
00000050: bd62 b83c affc a0bd ea39 303c aab3 223a
00000060: 58f9 6d3c 328e 85bb ede9 2ebc ca85 cd3c
00000070: 3e22 b7bc 4009 ba3c ed71 24bc 2140 30bd
00000080: 9915 fb3b cabe cf3c ad0e 453c ad61 ac3c
00000090: c77b 163d 7d3a c9bd 6e10 0b3c 2839 173c
000000a0: 28df 453c 797c 08bd 8ee5 d8bc a24b b83c
000000b0: 373d f6ba 68b8 da3b 4f95 cf3c 08a1 403c
000000c0: b5d0 debd 6f1c f4bd 1ba0 813c 8445 2b3d
000000d0: fb9d cbbc 2954 e8bb 5f8c eebd 0d96 4a3c
000000e0: 7bb9 39ba a058 4a3c bb5e 6dbb ca86 9e3c
000000f0: 2eed c93c 4ff1 81bc 9390 013c 7aff 7dbd
00000100: e199 843c b0e4 b63c 3a98 ba3b f437 14bd
00000110: 7b47 53bc 1411 2a3c 2619 863c 03dc 2c3c
00000120: 2005 45bc 5725 ff3b d529 70bc e654 d53c
00000130: 2518 123c 0084 883c 5b2e eabb 9714 ed3c
00000140: fb0d a0bc 8a02 68bd 3746 463b 8bf0 cd3c
00000150: ba17 9b3c 34b6 8dbc d927 623c 4db3 af3c
00000160: 702a 813c 7dfc 46bc 2ec4 9a3c 2067 013d
00000170: 8e0c 3c3c d649 ecbb bf72 8f3c 69ae 9fbd
00000180: 2d56 b93b 89bd 333b a372 993c bf88 9dbe
00000190: 3f66 0e3c 9800 303b 8384 3c3c 64f5 a43c
000001a0: 574d 933c fe65 0fbd f72f 533c 2c79 f4bc
000001b0: ed85 9f3c 44cf 7f3b 1fb9 443c 5c2d 3e3d
000001c0: 4718 2a3b ce21 d03c dbc0 9b3c fb5b c93c
000001d0: 5673 cf3c f556 ccbe 8068 f7bd 7839 7fbb
000001e0: 0050 03be d9b8 543b 5500 863c 8568 80bd
000001f0: 7783 cb3c 1215 74bc 310d 163c e13a e03c
00000200: f92e 253c 9086 beb8 7c72 6fbe 3ceb 593c
00000210: 20c2 1ebd c87d bb37 7d93 e4bc 3033 563c
00000220: 4bb0 e0ba 4bf6 80bc dc2a 6f3b cc66 e73c
00000230: 235d 903c c79d a83c 1ffa 1abd dfea dabb
00000240: 5979 ba3c 7e94 dd3b 8200 4abc 4699 8ebb
00000250: 7d06 843c aea9 08bb 0b96 ff3c 6f4e a53c
00000260: 9b3e bd3c 39a8 c03c 5509 3dbc e11a 263c
00000270: fcaa 91ba 8a0f 163d fbfe 833c 5749 2b3c
00000280: 442f 9f3b b3dc 033d 5a03 503c 9a90 38be
00000290: bdcd b0bc e9e9 a13b c81d 5c3c 046e a1ba
000002a0: 1e33 5dbb 9185 0d3c 300a a1ba d528 96bb
000002b0: 8f98 743c 8e8c 483b bed7 e43c 5f56 333d
000002c0: 4b91 053d 7ca4 183c 731a 9dbd d26e f93b
000002d0: a5eb 9f3c 09b2 7b3b 4a03 babb f074 3ebd
000002e0: 2aa7 42bd d4d7 783c a3ae ff3a 07b4 7dbb
000002f0: 8744 223c f7e3 b83c bfda c1ba 26fd af3b
00000300: a1b9 e23a 9902 563c 5ee4 b93b 4cbe 783c
00000310: db32 e23b d661 093d 6a4e 783b e799 c3bb
00000320: f461 023d 1718 36bd 4377 86bc b375 d53c
